mlp_model_weights.pth (torch, 74125 bytes, 6 tensors)

fc1.weight f4 [128, 68]
0	0x9faf188c	-7.415599e-20
1	0x99af248a	-1.8109334e-23
2	0x1e83fe2d	1.3975289e-20
3	0x3de6b18f	0.11264335
4	0x3e436564	0.19081646
5	0x3e0c27ad	0.1368701
6	0x3bc337b8	0.00595757
7	0x3e0d444b	0.13795583
8	0x3cd8a239	0.026444541
9	0x3d2cc9bc	0.042184576
10	0x3e2a04c4	0.1660338
11	0xbc02b859	-0.007978522
12	0xbe704f13	-0.23467664
13	0xbcc52377	-0.024064763
14	0xbdafb31a	-0.08579083
15	0x3c885b55	0.016645113
16	0x3e3e4d72	0.1858423
17	0xbd96af7b	-0.07357689
18	0x3b1d26c1	0.0023979398
19	0xbd67748f	-0.056507643
20	0xbdeff41d	-0.11716483
21	0xbe5463cc	-0.20741194
22	0xbb0d510e	-0.0021563205
23	0x3d1739bb	0.03692029
24	0xbe920112	-0.28516442
25	0xbe6e047c	-0.23243898
26	0xbd15ed75	-0.03660341
27	0xb62cc73e	-2.5745971e-06
28	0xbd408041	-0.046997312
29	0x35acb7e1	1.2868514e-06
30	0x3e3b70e6	0.18304786
31	0x3db20725	0.08692769
32	0xbbff84c9	-0.0077978116
33	0x3df81fa6	0.121154115
34	0x3d039d7a	0.032132603
35	0x3b46be9f	0.0030326021
36	0x3ebeb7be	0.3724956
37	0xbd8976cb	-0.06712111
38	0x3cff40b7	0.031158788
39	0xbcd691cd	-0.02619257
40	0xbd2c4f75	-0.042067964
41	0x3e12fc80	0.14354134
42	0xbd889e54	-0.06670824
43	0xbd52dfdb	-0.051483016
44	0x3c4eb815	0.012617131
45	0xbd1515ad	-0.036397625
46	0x3dff8795	0.12477032
47	0x3db76e84	0.08956626
48	0xbc731e4d	-0.014838767
49	0x3d05510c	0.032547995
50	0x3d101892	0.035179682
51	0xbdb5db58	-0.08879727
52	0x3d0ce9e4	0.034402743
53	0xbd051829	-0.032493744
54	0xbe2d9029	-0.16949524
55	0x3df1cad2	0.11806263
56	0x3d113fa5	0.035461087
57	0xbcffe558	-0.03123729
58	0x3de260a9	0.11053593
59	0x3dba6184	0.09100631
60	0xbe31f294	-0.17377692
61	0xbcc73497	-0.024317069
62	0xbdfbc800	-0.12294006
63	0xbc1b9dd3	-0.009498077
64	0xbec280d9	-0.37988928
65	0xbdac9c0e	-0.084282026
66	0x3ba72dc9	0.0051018936
67	0xbc736f00	-0.014858007
68	0xa1c6cda9	-1.347144e-18
69	0x20c41d55	3.3223102e-19
70	0x1b57b40d	1.7842561e-22
71	0x3e23ce1a	0.1599659
72	0x3e4594a0	0.19294977
73	0xbc9db736	-0.0192524
74	0x3d3f9497	0.046772566
75	0xbd93f896	-0.072251484
76	0xbde30976	-0.11085789
77	0xbe268230	-0.162606
78	0xbb14a047	-0.002267854
79	0x3c159e46	0.009131974
80	0xbe681423	-0.22663932
81	0x3c886a2a	0.016652185
82	0x3dd46729	0.10371239
83	0x3e14d3ed	0.14533968
84	0xbe2c90ca	-0.16852108
85	0xbe6de2d5	-0.23231061
86	0x3e0c9be6	0.13731346
87	0xbd4b2ad6	-0.0496014
88	0x3de8c7b2	0.11366214
89	0x3e4ef70f	0.20211433
90	0xbb6d5bf6	-0.0036218143
91	0xbcb70632	-0.022341821
92	0x3e60d88f	0.2195761
93	0x3d2326fb	0.039832097
94	0x3de0c409	0.10974891
95	0x3511c12e	5.429782e-07
96	0xbdbb79ee	-0.091541156
97	0x35916cc1	1.0834993e-06
98	0x3d7f262e	0.06229227
99	0xbdc21abe	-0.09477757
100	0x3d438df8	0.047742814
101	0x3c16cb10	0.009203687
102	0x3e3dccb9	0.18535127
103	0xbd016fab	-0.031600635
104	0xbe0ba82d	-0.13638373
105	0x3e4fffcf	0.20312427
106	0xbd6181a3	-0.05505527
107	0xbd85409d	-0.06506465
108	0xbdbf08ff	-0.09327888
109	0x3d2fc552	0.04291279
110	0x3e138b52	0.14408615
111	0xbe097e61	-0.13427116
112	0xbd602366	-0.05472126
113	0x3d4fc4d1	0.050724808
114	0x3d7fd358	0.062457412
115	0x3dd42a53	0.10359635
116	0xbdcba2aa	-0.09943135
117	0x3d9a9a54	0.07548967
118	0xbc147097	-0.009060047
119	0xbc97537a	-0.018472422
120	0xbc4c7ce2	-0.012480946
121	0xbe659fc4	-0.22424227
122	0x3db37a43	0.08763554
123	0xbe10cc73	-0.14140491
124	0xbda27c0b	-0.079338156
125	0x3d876bf8	0.0661239
126	0x3d54c609	0.051946674
127	0xbd8e37c1	-0.06944228
128	0xbd468e6e	-0.048475675
129	0xbc527c59	-0.01284703
130	0x3ca04176	0.019562464
131	0x3a2fac9b	0.00067014404
132	0xbce80c10	-0.028326064
133	0x3e21ef61	0.15813972
134	0x3d3c8c65	0.04603233
135	0x3d3ed3ce	0.04658871
136	0x9ea5150e	-1.7478763e-20
137	0xa2aa4300	-4.614953e-18
138	0x1b2f3789	1.4493605e-22
139	0x3d5ce7eb	0.05393211
140	0xbe2de3b6	-0.16981396
141	0xbd18a45f	-0.03726613
142	0x3d9d0a92	0.07668032
143	0x3db2f1d0	0.08737528
144	0x3dad845f	0.084725134
145	0x3d68bf1d	0.056822885
146	0xba848089	-0.0010109107
147	0xbd08f8ee	-0.033440523
148	0xbe76d072	-0.24102953
149	0x3dd60607	0.104503684
150	0x3d3c04f5	0.045903165
151	0x3deabd32	0.114618674
152	0x3dbdee99	0.092740245
153	0xbe154741	-0.14577962
154	0xbd9a30a9	-0.075288124
155	0x3e13dce6	0.14439735
156	0xbe4ab021	-0.1979375
157	0xbd6346f4	-0.055487588
158	0x3dd37125	0.10324315
159	0xbdaf6cb2	-0.08565654
160	0xbe823da8	-0.25437665
161	0x3e220e32	0.15825728
162	0x3ba5efff	0.00506401
163	0x32ef3b27	2.7850161e-08
164	0x3e09397d	0.13400836
165	0x330b9729	3.250094e-08
166	0x3dd84236	0.10559504
167	0x3dcf13d0	0.10111201
168	0xbd1e903e	-0.03871178
169	0x3d06456d	0.032781053
170	0x3d03c24a	0.03216771
171	0xbcb13a1b	-0.021634152
172	0xbb1599d3	-0.0022827282
173	0xbd61521f	-0.055009957
174	0x3cf8374e	0.030299809
175	0x3bb4f50d	0.0055223764
176	0x3e496032	0.19665602
177	0xbd49e55b	-0.049290996
178	0x3c9d701f	0.019218503
179	0x3dc163e6	0.09442882
180	0x3d223fb6	0.03961154
181	0x3e01e936	0.12686619
182	0xbe05aa41	-0.13053228
183	0x3db27de8	0.08715421
184	0x3e565cb3	0.209338
185	0xbdd7cd8e	-0.10537253
186	0xbcd152c2	-0.025552157
187	0x3b88c4a7	0.0041738334
188	0x3d1f7ba5	0.038936276
189	0xbdf8e2c5	-0.12152628
190	0x3db2a5f1	0.08723057
191	0x3df2aba4	0.11849144
192	0xbdf169d8	-0.11787766
193	0x3e6ca445	0.23109539
194	0xbd9f4048	-0.077759326
195	0xbce44752	-0.02786604
196	0x3e81c109	0.25342587
197	0xbe6f9eef	-0.23400472
198	0xbde357e4	-0.11100748
199	0xbd6599bd	-0.05605482
200	0xbdcd3539	-0.10019917
201	0xbcb75df5	-0.02238367
202	0xbc140a31	-0.009035633
203	0xbe41c73d	-0.1892366
204	0x23f0307e	2.604139e-17
205	0x9c95ec5d	-9.921091e-22
206	0x18dcd3e6	5.708263e-24
207	0x3d7e703c	0.062118754
208	0x3e853cdc	0.26022995
209	0x3e1ab5eb	0.15108459
210	0xbc2937bb	-0.010328229
211	0x3de1665d	0.11005852
212	0xbd294d85	-0.041333694
213	0xbc9c8f29	-0.019111233
214	0xbda9b547	-0.08286529
215	0xbbddf72a	-0.006773849
216	0xbec59ebf	-0.38597676
217	0xbc031f2f	-0.00800304
218	0x3de4df21	0.11175371
219	0x3e55d0f0	0.20880485
220	0xbcce8aa5	-0.025212595
221	0xbce6efd5	-0.028190533
222	0x3d6a3461	0.05717886
223	0x3c9a85a1	0.018862547
224	0xbda2b454	-0.07944551
225	0xbd97c23b	-0.074100934
226	0xbcefdf06	-0.02928115
227	0xbce0553e	-0.027384397
228	0xbe0a265f	-0.134912
229	0xbe4643e7	-0.1936184
230	0xbdb1736a	-0.086645916
231	0xb5fb3293	-1.8715676e-06
232	0x3d901406	0.07035069
233	0x343c0a5f	1.7512637e-07
234	0x3db5f994	0.08885494
235	0xbcf019d5	-0.029309193
236	0xbdc69889	-0.096970625
237	0x3e35262a	0.1769034
238	0x3de28969	0.11061365
239	0xbd546ef7	-0.051863637
240	0x3e5d67a2	0.21621564
241	0xbc513414	-0.012768764
242	0xbde65b0d	-0.11247835
243	0xbe15c73e	-0.14626786
244	0xbd7cd95b	-0.061730724
245	0x3dbda7b5	0.09260503
246	0xbe7f9c9b	-0.24962084
247	0xbcad978d	-0.02119043
248	0x3bfe2749	0.007756148
249	0xbe28d27c	-0.16486543
250	0x3dbe265b	0.092846595
251	0xbc63dfe1	-0.013908357
252	0xbdb2b505	-0.08725933
253	0x3e350f09	0.17681517
254	0xbb685a6c	-0.0035454286
255	0xbc252485	-0.010079508

fc1.bias f4 [128]
0	0x3e052637	0.13002859
1	0xbe0ccb80	-0.13749504
2	0x3dc4265d	0.0957763
3	0x3d4e2d25	0.050336022
4	0xbc950f9d	-0.018195922
5	0xbd6a25af	-0.057164844
6	0x2cc0e60b	5.482508e-12
7	0x3df64a23	0.12025859
8	0x3d35db22	0.044398434
9	0x3cf2581d	0.029583031
10	0x3dbb1f4b	0.09136828
11	0xbc8fa2fe	-0.017533775
12	0xbd069a97	-0.032862272
13	0x3cfad267	0.030617906
14	0xb536b0c3	-6.8057506e-07
15	0xbc876924	-0.016529627
16	0xbce5d927	-0.028057648
17	0xbd81d12d	-0.06338725
18	0x3e25ad83	0.1617947
19	0xbd86169b	-0.065472804
20	0x3d96cc2a	0.0736316
21	0xbd82838e	-0.06372748
22	0x3decc1f5	0.11560432
23	0x3e3f11da	0.18659154
24	0xbbf661f4	-0.007519001
25	0xbdc3d1e4	-0.09561518
26	0x3dbc5efc	0.09197804
27	0xbd2146fe	-0.039374344
28	0xbda8bd34	-0.08239213
29	0x3d6b1429	0.057392273
30	0xbcedf2ba	-0.029046405
31	0x3d8fbe43	0.070187114
32	0x3c96d403	0.018411642
33	0x3dc1868b	0.0944949
34	0xbb697d1c	-0.003562755
35	0xbde43596	-0.11143033
36	0xbdb539a2	-0.08848883
37	0xbbb7fbbc	-0.005614726
38	0xbdc0e43f	-0.094185345
39	0x3d5d8e06	0.054090522
40	0x3d1a4f0e	0.03767305
41	0xbdb9c60d	-0.09070978
42	0x3e2855db	0.16439001
43	0xb9db7a3b	-0.00041862004
44	0xbda7fbe9	-0.08202345
45	0x3e073d6d	0.13207026
46	0xbc7a9ab3	-0.015295672
47	0x3c7d4e7a	0.015460605
48	0xbc45da5e	-0.012075989
49	0xbdf8ffbb	-0.12158152
50	0x3e04c65f	0.12966298
51	0xbd596f57	-0.053084698
52	0xbc0f52ce	-0.0087477695
53	0x3e02e818	0.12783849
54	0xbdc6fca7	-0.09716158
55	0x3b30c7e7	0.002697462
56	0x3b91e44b	0.0044522635
57	0xbc84c615	-0.016207734
58	0x3dbff2ef	0.09372508
59	0xbe0f0a21	-0.13968708
60	0xbddeb124	-0.10873631
61	0x3cbac7aa	0.022800285
62	0xbdd44ab7	-0.10365813
63	0xbd99a455	-0.07502047
64	0x3ce7092a	0.028202612
65	0x3d26e0dc	0.040741786
66	0x3dc55fae	0.0963739
67	0xbb8cf1b9	-0.0043012765
68	0xbda78c45	-0.08181051
69	0x3d162316	0.036654554
70	0xb8e40c1f	-0.00010874145
71	0xbd539cf2	-0.051663347
72	0x3ce6af81	0.028159859
73	0x3ddbf295	0.10739628
74	0xbe280e80	-0.16411781
75	0x3d079f74	0.03311105
76	0x3e246f49	0.16058077
77	0x3d8c38ca	0.06846769
78	0x3da36775	0.07978717
79	0x3d200047	0.039062764
80	0xbe08dcef	-0.1336553
81	0x3d176a94	0.036966875
82	0x349ce2bf	2.9222244e-07
83	0x3d87bb24	0.06627491
84	0xbd9256cd	-0.07145462
85	0x3bc5a0de	0.0060311398
86	0xbdb97510	-0.09055531
87	0x3169089c	3.3910856e-09
88	0x3c3fb9e5	0.011702036
89	0xbcf94dab	-0.030432543
90	0x3dab8f43	0.083769344
91	0x3da0a031	0.07843054
92	0xbe10d37b	-0.14143173
93	0x31844c4e	3.8503805e-09
94	0xbd5865d9	-0.052831504
95	0x3c1f77e7	0.009733177
96	0xbb8e24b2	-0.0043378705
97	0x3d000af5	0.03126045
98	0x3c39944d	0.011326862
99	0xbd677408	-0.05650714
100	0x312f4bf2	2.5509022e-09
101	0x3b9dcb67	0.004815507
102	0xbd86b71d	-0.06577895
103	0x3dbc0575	0.09180728
104	0xbce1c633	-0.027560329
105	0xbe2e3e0c	-0.17015857
106	0xb77030d7	-1.4316486e-05
107	0xbddb72fc	-0.10715291
108	0xbe340588	-0.17580235
109	0xb51abf5e	-5.7647947e-07
110	0x3dea3a7b	0.114369355
111	0x3dc00959	0.09376783
112	0x3d361f52	0.044463463
113	0x3d9cae62	0.076504484
114	0xbe254f2c	-0.16143483
115	0xbd94ee64	-0.07272032
116	0xbd8aecf0	-0.067834735
117	0xbd87e27e	-0.06634997
118	0xbe1527d9	-0.14565982
119	0x3c97dc7e	0.018537756
120	0x3c9d38c6	0.01919211
121	0xbdb2f64e	-0.08738385
122	0xbd557a1f	-0.052118417
123	0x3cbcd68f	0.023051528
124	0xbdafbe93	-0.08581271
125	0xbd9f82a6	-0.07788591
126	0x3d9708f7	0.07374757
127	0x3dc288af	0.094987266

fc2.weight f4 [64, 128]
0	0x3d903d40	0.070429325
1	0xbcda12fa	-0.026620377
2	0x3c4c2ab3	0.012461352
3	0xbc7a9588	-0.01529444
4	0x3ccfc046	0.025360238
5	0xbc8ead89	-0.017416732
6	0xab01d995	-4.613196e-13
7	0x3e4a16c1	0.19735242
8	0xbdb55ca4	-0.088555604
9	0xb87e4974	-6.0626728e-05
10	0xbddd0d85	-0.10793594
11	0x3b12c7ab	0.0022396843
12	0x3c01d643	0.007924619
13	0x3e79e962	0.24405435
14	0xacbe25b0	-5.404309e-12
15	0xbb2b6e3d	-0.0026158236
16	0xbc61b037	-0.013774923
17	0xbdc5f81e	-0.09666465
18	0x3e8d2bb0	0.27572393
19	0xbe072240	-0.13196659
20	0x3e954e26	0.29161185
21	0xbc418d19	-0.011813425
22	0xbccfaf27	-0.025352074
23	0x3de5665e	0.112011656
24	0x3c38368a	0.011243472
25	0x3db6a105	0.08917431
26	0x3e3df11e	0.1854901
27	0x3cd40a84	0.02588392
28	0x3b560c28	0.0032661054
29	0x3df33153	0.11874642
30	0x3d822f18	0.06356639
31	0x3e3fd993	0.18735342
32	0x3b8af0fa	0.0042401524
33	0xbd4733cb	-0.048633378
34	0xbd8ad964	-0.06779745
35	0x3da1f36a	0.07907756
36	0x3c0eca24	0.008715186
37	0x3c564616	0.013078233
38	0x3d0d1eee	0.034453325
39	0x3e1c4cb9	0.15263642
40	0x3e202771	0.15640046
41	0x3d412bb6	0.047160827
42	0x3e35d2a1	0.1775613
43	0xba645981	-0.0008710847
44	0x3d5a784f	0.05333739
45	0x3c37c046	0.011215275
46	0xbdb6d338	-0.089270055
47	0x3d326860	0.04355657
48	0xbc35944b	-0.011082719
49	0xbda36332	-0.079779044
50	0xbc05a140	-0.008156121
51	0x3d541ab7	0.05178329
52	0x3c31a144	0.010841671
53	0x3dac5a11	0.08415616
54	0xbd842bc9	-0.06453664
55	0x3d9d6930	0.076860785
56	0xbc64a1e1	-0.013954611
57	0x3cefc620	0.029269278
58	0xbdf3d739	-0.11906285
59	0xbd65e93b	-0.05613063
60	0x3dbbec85	0.09175972
61	0x3dd19213	0.102329396
62	0x3da6b641	0.08140231
63	0x3e4c937f	0.1997814
64	0xbe394eb5	-0.1809643
65	0x3e0b60e6	0.13611183
66	0x3e118918	0.14212453
67	0xbb839203	-0.0040152087
68	0x3d1de4c8	0.03854826
69	0xbd9d7959	-0.07689161
70	0xb9b007f1	-0.00033575253
71	0xbe0ff08e	-0.14056608
72	0x3c4231fd	0.011852738
73	0xbba4fae8	-0.005034793
74	0xbe0d3ee1	-0.13793518
75	0xbd7c45b4	-0.06158991
76	0x3cb5b909	0.022182958
77	0x3ccc86f9	0.024966704
78	0x3b9ffe3c	0.004882602
79	0x3daedca1	0.085381754
80	0xbd933002	-0.07186891
81	0x3dc3f153	0.09567513
82	0xbaba49d1	-0.0014212673
83	0xbdedb2bb	-0.11606356
84	0xbd06eb23	-0.032939088
85	0xbe07a7a7	-0.13247548
86	0x3e2d5d2b	0.16930072
87	0x323f5ead	1.113919e-08
88	0x3e2b9ad1	0.16758277
89	0x3e21096b	0.15726249
90	0x3e20988d	0.15683194
91	0x3da1e328	0.07904655
92	0xbbb7a420	-0.005604282
93	0xbb2b6cdf	-0.0026157422
94	0x3aca7e3b	0.0015448997
95	0x3d8682c3	0.065679096
96	0x3da20783	0.07911589
97	0xb84e3953	-4.9167615e-05
98	0x3e3733c5	0.17890842
99	0x3defeb0a	0.11714752
100	0x9bb9267f	-3.063056e-22
101	0xbd2241ef	-0.03961366
102	0xbd044173	-0.03228898
103	0x3e3b99bf	0.18320368
104	0xbe3c3e11	-0.18383051
105	0xbdfce75a	-0.12348814
106	0x299f46af	7.07328e-14
107	0x3d4203d7	0.047366943
108	0xbd304776	-0.0430369
109	0x1c02fdaf	4.334127e-22
110	0x3c13ffd6	0.009033164
111	0xbccbbea9	-0.024871187
112	0x3d1efa94	0.03881319
113	0x3dbd7f42	0.09252788
114	0xbc9704fc	-0.018434994
115	0xbe32069c	-0.17385334
116	0xbd87860c	-0.06617364
117	0x3e2cba8e	0.1686804
118	0xbd7dd6ba	-0.061972357
119	0xba2d3654	-0.0006607522
120	0xbdd8979b	-0.105757914
121	0xbd475116	-0.048661314
122	0x3d016455	0.031589825
123	0x3dfa9b73	0.12236681
124	0x3d0dfd7c	0.03466557
125	0x3c323ce2	0.010878773
126	0x3decfe70	0.115719676
127	0xbc018d35	-0.007907202
128	0x3e20d45e	0.15706012
129	0x3d4db14a	0.050217904
130	0xbe86a93d	-0.26300994
131	0x3e38b0d8	0.1803621
132	0x3aaba8c6	0.0013096563
133	0x3be22b75	0.006902153
134	0x28fe7907	2.8252152e-14
135	0x3d01b0c0	0.031662703
136	0xbd9a66a1	-0.07539106
137	0x380ce881	3.3595137e-05
138	0xbd2abda2	-0.041684754
139	0xbaa9b8b5	-0.0012948724
140	0x3bf72790	0.007542558
141	0x3e2a8b3c	0.16654676
142	0x26ac7e00	1.196905e-15
143	0x3d068c59	0.03284869
144	0xbd0fef24	-0.03514017
145	0x3c473e8c	0.012160908
146	0x3ce07f7f	0.027404545
147	0x3b93bc0d	0.0045085014
148	0xbe22db65	-0.15904005
149	0xbe714851	-0.23562743
150	0xbe1f0d7b	-0.15532486
151	0x3de23a87	0.110463195
152	0xbc0b9eba	-0.00852173
153	0x3e142bbd	0.1446981
154	0x3c3b81f4	0.011444557
155	0xbd4bbe30	-0.049741924
156	0x3e26d4fa	0.16292182
157	0x3e5f577e	0.2181072
158	0xbd817a56	-0.06322162
159	0xbe23e164	-0.16003948
160	0x3d33aa0c	0.04386334
161	0xbda865e2	-0.082225576
162	0x3d3ad2a8	0.045611054
163	0x3d0f5415	0.034992296
164	0x3e7311f8	0.23737323
165	0x3dab7c5c	0.08373329
166	0x3e3d9f7d	0.18517871
167	0x3cbaa700	0.02278471
168	0x3d4066f1	0.046973173
169	0x3d9f6947	0.07783752
170	0xbd5fb2a5	-0.054613728
171	0x3b22f57d	0.002486556
172	0xbd86361b	-0.065532885
173	0x3e0408cf	0.12893985
174	0xbe4da572	-0.20082644
175	0xbe86ea26	-0.26350516
176	0x3de2a432	0.11066474
177	0x3da7f111	0.08200277
178	0xbe1354ea	-0.14387861
179	0x3db4a16d	0.08819852
180	0xbc0c818e	-0.00857581
181	0xbd9588d3	-0.07301488
182	0xbdc8d271	-0.098057635
183	0x3e23fc2a	0.16014162
184	0xbe1ac845	-0.1511546
185	0xbe8ceee2	-0.27526003
186	0xbd935871	-0.07194603
187	0x3d2490f2	0.040177293
188	0x3d1e26a9	0.038611088
189	0xbe80ee1f	-0.25181672
190	0x3e589c23	0.21153311
191	0xbcba27c6	-0.022724044
192	0x3d32da6f	0.043665346
193	0xbaf5b9ef	-0.0018747429
194	0x3e2b1e50	0.16710782
195	0xbbd088cb	-0.0063639632
196	0x3c9fb904	0.019497402
197	0x3e1203bf	0.14259242
198	0x34e3fad6	4.2464552e-07
199	0xbdca8067	-0.09887772
200	0x3c662c61	0.014048667
201	0xbe13998a	-0.14414039
202	0x3cbdaee4	0.023154683
203	0xbdca7bad	-0.098868705
204	0xbdcd726c	-0.1003159
205	0x3e19b7cc	0.15011519
206	0xbe3678ec	-0.17819566
207	0x3cd391e1	0.025826396
208	0x3ce3bad4	0.027799048
209	0x3da6a89c	0.081376284
210	0xb5a8e75c	-1.258431e-06
211	0x3dd1858e	0.10230552
212	0xbe12fbcb	-0.14353864
213	0x3bd80bbc	0.0065931957
214	0xbe0f8bfc	-0.14018244
215	0x32363466	1.0605708e-08
216	0x3d0db39f	0.03459513
217	0x3d2fc708	0.04291442
218	0xbd8b38a9	-0.067979164
219	0x3e5b6e18	0.21428716
220	0x3e0df05c	0.13861221
221	0xaef3bde3	-1.1084091e-10
222	0xbe836d88	-0.25669503
223	0xbdba345a	-0.090920165
224	0xbd442fe4	-0.047897235
225	0xb9c2114b	-0.00037015448
226	0x3d07b0ce	0.0331276
227	0xbd7d8e7a	-0.061903454
228	0x9a87acae	-5.611367e-23
229	0xbd9fdf82	-0.078063026
230	0xba74abf7	-0.0009333486
231	0x3cc84ee0	0.024451673
232	0xbcdb526c	-0.0267727
233	0x3d871a40	0.06596804
234	0xb13b8b04	-2.7291103e-09
235	0x3d72d45f	0.059284564
236	0x3dba8d1e	0.09108947
237	0x9ebddd8f	-2.0102788e-20
238	0xbe775fb3	-0.241576
239	0x3e7a89a9	0.24466576
240	0xbdd46508	-0.10370833
241	0x3c87127d	0.016488308
242	0x3da10fab	0.078643166
243	0x3d597d7d	0.05309819
244	0x3a9e39b2	0.0012071638
245	0x3cf109fc	0.029423706
246	0x3d8cd80e	0.06877147
247	0xbd054cea	-0.032544054
248	0x3ddaf0ff	0.106904976
249	0x3cda2d58	0.02663295
250	0x3e118303	0.14210133
251	0xbe15f2a7	-0.14643346
252	0x3dc87365	0.09787635
253	0x3e727862	0.23678735
254	0xbcb4c729	-0.022067623
255	0xbce42aea	-0.027852494

fc2.bias f4 [64]
0	0x3dfda42a	0.123848274
1	0x3daef7a9	0.08543331
2	0x3d0a3278	0.033739537
3	0x3d470301	0.04858685
4	0x3d8d814e	0.069094285
5	0xbc931872	-0.017955992
6	0x3daf08d3	0.08546605
7	0xbd250d4c	-0.040295884
8	0x3d84fc96	0.064934894
9	0x3c40abe5	0.011759733
10	0x3d149858	0.0362781
11	0x3c7db8a9	0.015485921
12	0x3d9bcdd5	0.07607619
13	0x3d19ecd3	0.03757937
14	0x3e09a3fd	0.13441463
15	0x3e203a25	0.1564718
16	0xbd3d2632	-0.046179004
17	0xbcafd8b2	-0.021465633
18	0x3ddbec02	0.10738374
19	0x3d74a137	0.05972406
20	0x3d4baf1c	0.049727544
21	0x3dff8118	0.124757946
22	0x3d06ec06	0.032939933
23	0x3d6a5219	0.0572072
24	0x3dfbadfc	0.12289044
25	0x3cadeb62	0.021230403
26	0x3debeced	0.115197994
27	0x3ce5e017	0.028060956
28	0x3da1590c	0.078783125
29	0x3d8322fe	0.064031586
30	0xbc41573b	-0.0118005825
31	0x3d9a9219	0.07547397
32	0x3e005b56	0.12534842
33	0x3df92fed	0.12167344
34	0x3c185b57	0.009299121
35	0x3e412416	0.18861422
36	0x3d0ac413	0.033878397
37	0x3dd2459f	0.102671854
38	0x3e239bab	0.15977351
39	0x3ce4cae9	0.027928786
40	0x3e0e9ec6	0.13927755
41	0x3d527bea	0.051387705
42	0x3d99f001	0.0751648
43	0x3d2eb8fb	0.04265688
44	0x3db7f1b2	0.089816466
45	0x3dcd8e22	0.10036875
46	0x3dbc00f5	0.0917987
47	0xbd98a2a6	-0.07452898
48	0x3ced4d51	0.028967531
49	0x3e1afbd3	0.15135126
50	0xbcf7fa21	-0.030270638
51	0x3d397829	0.04528061
52	0x3d37a908	0.044838935
53	0x3d8d7275	0.069065966
54	0x3d8dddb4	0.06927052
55	0x3d04398e	0.03228145
56	0x3cb9aeab	0.022666296
57	0x3dcbf6f1	0.0995921
58	0x3d6733c8	0.056445867
59	0x3dd4037a	0.103522256
60	0x3cb0aeab	0.021567663
61	0x3da78c5b	0.081810676
62	0x3d52b625	0.051443238
63	0x3b8d1bab	0.004306277

fc3.weight f4 [10, 64]
0	0x3cd0f59a	0.025507737
1	0xbe2f5cb5	-0.17125209
2	0xbdf3b45f	-0.118996374
3	0xbe9550ff	-0.29163358
4	0xbd8f97ef	-0.07011401
5	0x3e14f265	0.14545591
6	0x3dbf8ede	0.09353422
7	0xbe0ce7e6	-0.13760337
8	0x3df96daa	0.1217912
9	0xbe3c1945	-0.18369015
10	0xbec9360a	-0.3929904
11	0xbe803ca1	-0.25046256
12	0xbdae5495	-0.085122265
13	0xbd711746	-0.058860086
14	0x3dce840c	0.1008378
15	0x3e1f5f10	0.15563607
16	0xbe4d124c	-0.20026511
17	0xbe58a837	-0.21157919
18	0xbd92916d	-0.07156644
19	0x3e35928c	0.17731684
20	0x3db78b79	0.08962149
21	0x3e25d895	0.161959
22	0xbd5165cf	-0.051122483
23	0xbe1d2f76	-0.15350136
24	0x3dc91f94	0.09820476
25	0xbe677e46	-0.22606763
26	0xbdbceb42	-0.09224559
27	0xbe8c2575	-0.27372327
28	0xbe1edd99	-0.1551422
29	0xbe5c0da4	-0.21489578
30	0x3cd683cf	0.026185898
31	0xbdade8dd	-0.08491681
32	0xbe4f2074	-0.20227224
33	0xbdefae9c	-0.11703226
34	0x3dad4ed9	0.084623046
35	0x3d509bd6	0.050929867
36	0xbe3cb3cc	-0.18427962
37	0x3dc3a789	0.09553439
38	0x3e2fd1b3	0.17169838
39	0xbd1b9837	-0.03798696
40	0xbe262a20	-0.16227007
41	0xbe2a32ed	-0.16620989
42	0xbe2756d5	-0.16341718
43	0xbe50326d	-0.20331736
44	0x3c32b190	0.010906592
45	0x3e4bcfb5	0.19903453
46	0xbe3b8af8	-0.18314731
47	0x3ad424ac	0.0016185245
48	0xbc10e10e	-0.00884272
49	0xbe2cf030	-0.168885
50	0xbeceb542	-0.40372664
51	0x3e282fe0	0.16424513
52	0xbd55ec5a	-0.052227356
53	0xbe25264a	-0.16127887
54	0xbdc209e3	-0.09474542
55	0x3c9a8bf3	0.018865561
56	0xbe5aae73	-0.2135561
57	0x3e5f1dd0	0.21788716
58	0x3e147f20	0.1450162
59	0x3ca0a5ed	0.01961037
60	0x3e189f3a	0.1490449
61	0xbe19e381	-0.15028192
62	0xbe24196a	-0.1602532
63	0x3dcec521	0.10096193
64	0x3d8472dd	0.06467221
65	0xbe4b7b07	-0.1987115
66	0x3dcc252e	0.09968029
67	0xbc8085be	-0.015688773
68	0xbe813cba	-0.25241643
69	0x3d9f0772	0.07765092
70	0x3df3294d	0.11873112
71	0x3e5a93a8	0.21345389
72	0xbeb8f896	-0.36127156
73	0xbe9df019	-0.30847242
74	0x3dd7f3e5	0.10544566
75	0x3dd89d50	0.1057688
76	0xbde29e90	-0.110654
77	0xbe82bcb5	-0.25534597
78	0xbec7b7b9	-0.39007357
79	0x3e2bde0d	0.16783924
80	0xbd95a02e	-0.073059425
81	0xbe876c75	-0.26449934
82	0x3e0355e0	0.12825727
83	0xbe90270f	-0.281548
84	0x3e4f155e	0.20222995
85	0xbe238211	-0.15967585
86	0x3e28a0b3	0.16467552
87	0xbebaea91	-0.36507085
88	0x3d93c418	0.07215136
89	0x3e164535	0.14674838
90	0xbe3cf386	-0.18452272
91	0xbeea1819	-0.4572151
92	0xbe0536c5	-0.13009174
93	0xbd197ca2	-0.037472375
94	0xbeaf4cd1	-0.34238294
95	0xbdffd33e	-0.12491463
96	0xbe19baa4	-0.15012604
97	0x3d84360d	0.06455622
98	0xbdee711f	-0.1164267
99	0x3da4b80b	0.08042916
100	0x3dbb1e9e	0.09136699
101	0x3e261ae6	0.16221198
102	0x3e29f1ff	0.1659622
103	0x3dc6c9e7	0.097064786
104	0x3dfd242d	0.123604156
105	0xbd8e40b8	-0.06945938
106	0xbe5e4954	-0.2170766
107	0xbe65a144	-0.22424799
108	0x3e087e55	0.13329442
109	0xbda6e674	-0.08149424
110	0xbe8a1f3e	-0.2697696
111	0xbe2a4cdb	-0.1663088
112	0xbe2e7f4a	-0.17040744
113	0x3d515a08	0.05111125
114	0x3e2bb7ce	0.16769335
115	0xbd903732	-0.07041778
116	0x3dd5f487	0.104470305
117	0xbd78dfd2	-0.060760327
118	0x3db3e793	0.08784404
119	0x3d964d00	0.07338905
120	0xbd861d4c	-0.06548557
121	0xbe207a44	-0.1567164
122	0x3e05e1a7	0.13074361
123	0xbdc46a69	-0.095906086
124	0xbca20138	-0.019775972
125	0x3a76a0e9	0.0009408133
126	0xbdc05418	-0.093910396
127	0x3e26ea01	0.16300203
128	0xbe06c190	-0.13159776
129	0xbe36ac32	-0.17839125
130	0x3e48bbbc	0.19602865
131	0x3e1468c9	0.14493097
132	0x3de31bd9	0.11089296
133	0x3e1d13cb	0.15339582
134	0x3e150178	0.14551342
135	0xbeeee81d	-0.46661463
136	0x3e390e4f	0.18071865
137	0x3e0c9401	0.13728334
138	0x3e4cd32a	0.20002428
139	0xbe12463d	-0.14284606
140	0xbeb6b03a	-0.35681325
141	0xbea2ed78	-0.318218
142	0xbddf45fe	-0.10902022
143	0x3dd4b9b1	0.1038698
144	0x3e5eaa30	0.21744609
145	0xbe57e463	-0.21083216
146	0x3e1b4371	0.15162446
147	0xbd67f69f	-0.05663168
148	0xbe8e3850	-0.27777338
149	0x3d793012	0.06083686
150	0xbf12ae61	-0.5729733
151	0x3dbe581f	0.092941515
152	0xbec21f3b	-0.37914452
153	0x3e0a3453	0.13496523
154	0xbe706864	-0.23477322
155	0xbe7f90ba	-0.24957553
156	0xbe3c99f5	-0.18418105
157	0xbe4f414a	-0.2023975
158	0xbe20d79c	-0.15707248
159	0xbe0e6155	-0.13904317
160	0xbe102bd0	-0.14079213
161	0xbea003d7	-0.3125293
162	0xbd55b4f9	-0.052174542
163	0xbd686b07	-0.056742694
164	0xbd793ff7	-0.060852017
165	0xbdab580f	-0.08366405
166	0xbe1f2b81	-0.15543939
167	0xbf181416	-0.5940565
168	0xbee82836	-0.4534318
169	0xbe216130	-0.1575973
170	0xbe716d40	-0.23576832
171	0x3dda6497	0.10663717
172	0x3d9dbd46	0.07702117
173	0x3d8a033b	0.067388974
174	0x3d8e3ac1	0.069448
175	0x3e780fcb	0.24224775
176	0xbe8156a2	-0.25261408
177	0x3c940b22	0.018071715
178	0x3e03f294	0.12885505
179	0xbe41867d	-0.1889896
180	0x3dd8eba5	0.105918206
181	0xbe0491bf	-0.12946223
182	0x3e62e6f1	0.2215841
183	0x3e287ac9	0.16453089
184	0xbdd440a4	-0.10363892
185	0xbcc62361	-0.024186792
186	0xbe3febda	-0.18742314
187	0xbe683c3c	-0.22679228
188	0xbcb7f097	-0.02245359
189	0xbe107ccf	-0.1411011
190	0xbd5f167c	-0.054464802
191	0xbe9c007f	-0.30469128
192	0xbb8ab8de	-0.0042334637
193	0x3e1d5539	0.15364541
194	0xbce21a0c	-0.02760031
195	0xbd933677	-0.07188123
196	0x3e29614b	0.1654102
197	0x3db1f421	0.08689142
198	0xbe9aeff9	-0.3026121
199	0xbe2ad1fc	-0.16681665
200	0x3e225f4e	0.15856668
201	0x3df92b9e	0.121665224
202	0xbe36386a	-0.17794958
203	0xbea1a203	-0.31568918
204	0x3d258f9b	0.040420156
205	0xbd599151	-0.0531171
206	0x3dda4d08	0.10659224
207	0xbe9349f7	-0.28767368
208	0x3e0d7c15	0.13816865
209	0x3df7307e	0.12069796
210	0xbe0394cf	-0.12849735
211	0x3db4b889	0.0882426
212	0xbe24a0d9	-0.16076984
213	0x3e008f84	0.12554747
214	0xbe163f9a	-0.146727
215	0x3dd7fbcc	0.10546073
216	0xbd1d9dab	-0.038480442
217	0xbe3d9bf4	-0.18516523
218	0xbe3bb814	-0.18331939
219	0x3dad045b	0.08448096
220	0x3e216876	0.15762505
221	0xbe304ad6	-0.17216048
222	0x3e38edb3	0.18059425
223	0x3e3a8d52	0.18217972
224	0xbe499e79	-0.19689359
225	0xbec522f3	-0.38503227
226	0x3e3510e0	0.17682219
227	0xbefd5f25	-0.49486652
228	0xbe1d57e4	-0.15365559
229	0x3dc25ddc	0.094905585
230	0xbdf9f5c3	-0.122050785
231	0xbec3d212	-0.38246208
232	0xbead3916	-0.33832616
233	0xbddf4168	-0.10901147
234	0x3ddae3f6	0.10688011
235	0x3dbcb170	0.09213531
236	0xbeff3dea	-0.49851924
237	0x3e8e22ce	0.2776093
238	0x3e03c69c	0.12868732
239	0xbd57d0ee	-0.052689485
240	0xbeb9788a	-0.36224777
241	0x3e4dfe1f	0.20116471
242	0xbebb1ba8	-0.36544538
243	0xbe2427ab	-0.16030757
244	0xbef2ecfa	-0.47446424
245	0x3d619605	0.05507471
246	0xbecf665c	-0.40507782
247	0x39ff6090	0.00048709335
248	0xbde2792b	-0.11058267
249	0x3ce240bb	0.027618757
250	0xbd4bdbb1	-0.04977006
251	0xbe9b47bf	-0.30328175
252	0x3e702da1	0.23454906
253	0x3e44e875	0.192293
254	0x3d8ac43b	0.06775709
255	0xbe01ee50	-0.12688565

fc3.bias f4 [10]
0	0xbda41c7e	-0.08013247
1	0xbd3adad9	-0.045618866
2	0x3c41a7de	0.011819808
3	0x3d7bd321	0.061480645
4	0xbdba5997	-0.09099119
5	0xbcf82c7c	-0.03029465
6	0x3cd4eaec	0.025990926
7	0x3e208cb9	0.15678681
8	0xbde15397	-0.110022716
9	0x3e0b6106	0.1361123
