mlp_model_weights.pth (torch, 71565 bytes, 6 tensors)

fc1.weight f4 [128, 63]
0	0x00008da1	5.0807e-41
1	0x00008c9a	5.0438e-41
2	0x80008da9	-5.0818e-41
3	0x3c457222	0.012051137
4	0xbdc9a93d	-0.09846733
5	0xbe60e7cd	-0.21963425
6	0x3dfb6841	0.12275744
7	0xbe26cdfa	-0.16289511
8	0xbc83b3c3	-0.016076928
9	0xbe098a39	-0.13431634
10	0xbd5c171d	-0.05373298
11	0x3b9afc59	0.004729789
12	0xbe49166f	-0.19637464
13	0x3db3290f	0.08748066
14	0x3e300e51	0.17192961
15	0xbe78512d	-0.24249716
16	0xbdd7133e	-0.10501717
17	0xbe692f6a	-0.22771993
18	0xbd209c3b	-0.039211493
19	0xbd9b2002	-0.075744644
20	0xbe5d7612	-0.21627071
21	0x3e6950b5	0.22784694
22	0x3d8602f4	0.06543532
23	0xbe40243e	-0.18763825
24	0x3ecf9a2a	0.40547305
25	0x3ed65c4f	0.418673
26	0xbd61e714	-0.055152014
27	0xbe89b4fa	-0.26895887
28	0xbcb09c41	-0.021558883
29	0xbdc20246	-0.0947309
30	0xbe4dae85	-0.20086105
31	0xbd8f8965	-0.07008628
32	0xbe178a41	-0.14798833
33	0x3e196fd7	0.1498407
34	0x3e0a1b5c	0.13487
35	0xbe3039b2	-0.17209509
36	0x3e9e9e64	0.30980217
37	0x3e86653d	0.26249114
38	0x3bb99e73	0.0056646406
39	0xbcd1d9db	-0.025616577
40	0xbd75e8a3	-0.060036313
41	0xbd762c8a	-0.06010107
42	0xbe5da6b0	-0.21645617
43	0xbe41b148	-0.18915284
44	0x3d5de8c8	0.054177076
45	0xbe0d8028	-0.13818419
46	0xbdc96716	-0.09834115
47	0x3cb810d5	0.022468964
48	0xbdf1911b	-0.11795255
49	0x3e343b1b	0.17600672
50	0xbc3ad75a	-0.011403883
51	0xbe418c1f	-0.18901108
52	0xbe230684	-0.15920454
53	0x3df8a587	0.12140947
54	0x3cd1a39e	0.025590714
55	0xbe211105	-0.15729149
56	0x3e32d143	0.1746264
57	0x3c8a3148	0.016869202
58	0xbe374164	-0.17896038
59	0x3ce3e8db	0.027820995
60	0xbe026183	-0.1273251
61	0xbd885147	-0.066561274
62	0x3e06691c	0.13126034
63	0x8000a819	-6.0302e-41
64	0x8000ad5c	-6.219e-41
65	0x00008ac3	4.9778e-41
66	0x3df38d50	0.118921876
67	0xbdfb59e2	-0.12273003
68	0x3e65136c	0.2237069
69	0x3e560a36	0.20902333
70	0xbca9b49f	-0.02071601
71	0x3daf3bc6	0.08556323
72	0xbd37b7b9	-0.044852946
73	0x3d92427f	0.071415894
74	0xbe1b75c2	-0.1518164
75	0xbdd9ce35	-0.10635034
76	0x3e02e0d3	0.12781076
77	0xbe7f1a01	-0.24912263
78	0x3e3e686f	0.18594526
79	0xbde19390	-0.110144734
80	0x3e3d3a04	0.18479162
81	0x3c8847e6	0.016635846
82	0x3e394fd6	0.18096861
83	0x3e134417	0.14381443
84	0xbe2f7665	-0.17135008
85	0x3decdc29	0.1156543
86	0x3dcaaf14	0.09896675
87	0xbe77cc38	-0.24198997
88	0x3d0dd5f1	0.03462786
89	0x3c7410f3	0.014896619
90	0x3dc50b56	0.09621303
91	0xbdd31a83	-0.10307791
92	0xbd8596a0	-0.0652287
93	0x3e201ee5	0.15636785
94	0x3c9b5273	0.018960213
95	0x3e86f12d	0.26355878
96	0xbd0aa772	-0.033851095
97	0xbecaab9c	-0.39584053
98	0x3e2f0a00	0.17093658
99	0xbdeb0268	-0.11475068
100	0xbecd6a51	-0.40120175
101	0x3d980e52	0.074246064
102	0xbca67a62	-0.020322029
103	0x3cbb26bd	0.02284562
104	0xbded1341	-0.11575938
105	0x3de90ba7	0.11379176
106	0x3e0629f5	0.13101943
107	0xbd0b7029	-0.03404251
108	0xbb68a765	-0.0035500166
109	0xbe21c74e	-0.15798685
110	0x3be4f548	0.0069872476
111	0xbcd8e21e	-0.026475009
112	0xbe4fba50	-0.20285916
113	0xbe0d30a3	-0.13788085
114	0xbe2ce6fc	-0.16884989
115	0x3de57209	0.11203391
116	0xbe41aa22	-0.18912557
117	0x3ddd7ff3	0.1081542
118	0x3b390217	0.0028230005
119	0xbe5a7a3f	-0.21335696
120	0x3ccc9e3d	0.024977798
121	0x3e28f6e1	0.16500427
122	0xbdc3479c	-0.09535143
123	0xbdc70922	-0.09718539
124	0x3cdaa1aa	0.026688416
125	0xbd9d0790	-0.07667458
126	0x000093e9	5.306e-41
127	0x8000ad70	-6.2218e-41
128	0x00008bf2	5.0203e-41
129	0xbd614ab3	-0.05500288
130	0xbd95f353	-0.07321801
131	0xbe8ad944	-0.27118886
132	0x3d32d3de	0.043659084
133	0x3df10745	0.11768965
134	0xbe755bfd	-0.23960872
135	0xbda59c76	-0.08086483
136	0x3d5337ce	0.05156689
137	0xbe802331	-0.2502685
138	0x3d7fd393	0.062457632
139	0xbebfd188	-0.37464547
140	0xbdd149f0	-0.102191806
141	0xbcfe6379	-0.031053292
142	0x3ddb18af	0.106980674
143	0x3e8bc870	0.2730136
144	0xbcce7d8f	-0.025206355
145	0x3db5265d	0.08845208
146	0x3e55d125	0.20880564
147	0x3e038734	0.12844545
148	0xbd1f6271	-0.03891224
149	0x3e36be6b	0.17846076
150	0x3dbc9bd8	0.09209412
151	0x3e24f0b9	0.16107453
152	0x3d9ca928	0.076494515
153	0xbd094a4a	-0.033518113
154	0x3e872a4e	0.26399463
155	0x3ee4473a	0.44585592
156	0xbda0f051	-0.07858337
157	0xbde7b4c5	-0.11313776
158	0x3e9c744a	0.30557472
159	0x3d6e2362	0.058139212
160	0xbd4a3e58	-0.049375862
161	0x3d5034b4	0.05083151
162	0x3dd95e04	0.10613635
163	0x3e208b4e	0.1567814
164	0xbe71b170	-0.23602843
165	0xbda80851	-0.08204711
166	0x3d01ad74	0.03165956
167	0x3f00257c	0.50057197
168	0xbd342fd4	-0.043990925
169	0xbd67b9b1	-0.056573573
170	0x3da471f2	0.08029546
171	0xbda5eb47	-0.08101516
172	0xbe43cff3	-0.19122295
173	0xbe3ab579	-0.18233289
174	0x3e5a2a11	0.2130511
175	0xbdf84be8	-0.12123853
176	0xbe6db4ba	-0.23213473
177	0x3be6c92d	0.007043025
178	0x3e5de092	0.21667698
179	0x3edd94b9	0.4327753
180	0xbe3cd13c	-0.18439192
181	0xbdeb0ddf	-0.11477255
182	0xbd871dae	-0.06597458
183	0xbe1a4c4d	-0.15068169
184	0x3d4d3ac2	0.050104864
185	0xbe53fabc	-0.20701116
186	0x3ddc3af0	0.10753429
187	0x3c8683a1	0.016420187
188	0xbec5774a	-0.38567573
189	0x000098f1	5.4865e-41
190	0x80008e69	-5.1087e-41
191	0x8000a33f	-5.8562e-41
192	0x3e45b873	0.19308643
193	0xbde8278a	-0.113356665
194	0x3eb58870	0.35455656
195	0x3e4c8876	0.1997393
196	0xba0005ee	-0.0004883696
197	0x3e5331ab	0.20624416
198	0xbd152387	-0.036410835
199	0x3e473958	0.19455469
200	0x3ea5e915	0.3240439
201	0x3d959143	0.07303097
202	0x3e2d63b2	0.16932562
203	0x3e7fda89	0.24985708
204	0x3d53ff53	0.051757168
205	0x3d4ac00c	0.049499556
206	0xbe209775	-0.15682776
207	0xbe1a5059	-0.15069713
208	0xbd89765c	-0.067120284
209	0x3deaef1b	0.11471387
210	0x3beea364	0.0072826613
211	0x3c5b2e95	0.013377805
212	0xbbb77b94	-0.0055994485
213	0xbda1bd27	-0.07897406
214	0xbdb659c1	-0.08903838
215	0x3dbc81f3	0.09204473
216	0x3d3ad7bd	0.0456159
217	0x3e184052	0.14868286
218	0xbe44cb22	-0.19218114
219	0x3dc3dec2	0.09563972
220	0xbd7dbd84	-0.061948314
221	0x3da317ed	0.07963548
222	0xbdb994a3	-0.09061553
223	0xbe8f4102	-0.27979285
224	0x3db61bbb	0.08892008
225	0xbe33cc53	-0.17558412
226	0xbe48664e	-0.19570276
227	0x3d091d81	0.033475403
228	0xbdd5541b	-0.104164325
229	0x3c6dc7b9	0.01451295
230	0xbdf70d17	-0.120630436
231	0x3d842866	0.06453018
232	0x3da09923	0.078417085
233	0x3db81814	0.089889675
234	0x3d391cfc	0.045193657
235	0xbe9bd427	-0.30435297
236	0xbd1dee05	-0.03855707
237	0xbe4a9da3	-0.19786696
238	0xbea8adc5	-0.32945076
239	0xbe35f00d	-0.17767353
240	0x3d9e8019	0.077392764
241	0x3e631a5d	0.22178026
242	0xbe8b33ec	-0.2718805
243	0x3d8d6958	0.06904858
244	0x3e7e5d44	0.24840266
245	0xbe5a65f5	-0.21327956
246	0x3ce1590a	0.027508277
247	0x3d8836ae	0.06651054
248	0xbdfdee8f	-0.12399017
249	0xbd30a79d	-0.0431286
250	0xbd29a1ca	-0.04141406
251	0xbe5d6f9e	-0.2162461
252	0x8000911e	-5.2058e-41
253	0x00008c28	5.0279e-41
254	0x800088e7	-4.9111e-41
255	0x3daac356	0.083380386

fc1.bias f4 [128]
0	0x3cb053d6	0.021524351
1	0xbd7f20ac	-0.062287018
2	0xbe4ad653	-0.1980832
3	0xbcd4ae17	-0.025961919
4	0xbe18ebfa	-0.14933768
5	0x3d104f09	0.035231624
6	0x3c8a1500	0.016855717
7	0xbdfcb16a	-0.123385265
8	0x3e070e11	0.1318896
9	0xbd598552	-0.05310566
10	0xbda5b9f5	-0.08092109
11	0xbdb1c620	-0.086803675
12	0xbe0ce8c2	-0.13760665
13	0xbdfcbd3b	-0.1234078
14	0xbd985888	-0.07438761
15	0xbc94631d	-0.018113667
16	0xbe917845	-0.2841207
17	0x3c8b0693	0.016970908
18	0x3d28f313	0.04124744
19	0xbd39ca25	-0.045358796
20	0xbe804292	-0.2505079
21	0x3d99f46d	0.07517324
22	0xbe1f5de0	-0.15563154
23	0x3d550e13	0.052015375
24	0xbc90be2a	-0.017668802
25	0xbe061f16	-0.13097796
26	0xbe857a16	-0.26069707
27	0xbcd781d3	-0.026307022
28	0x3d89ef2e	0.06735073
29	0xbe1b7662	-0.15181878
30	0xbe6aa769	-0.22915424
31	0x3dbcd03d	0.09219406
32	0xbd87101e	-0.06594871
33	0xbe607f9c	-0.21923679
34	0xbdab44fe	-0.083627686
35	0xbd0e863d	-0.03479599
36	0x3c1ab8c1	0.009443463
37	0xbd41d8b0	-0.04732579
38	0xbea9365c	-0.33049285
39	0xbd1167ba	-0.035499312
40	0xbd6cb315	-0.057787973
41	0xbcbe69aa	-0.023243744
42	0xbcaf217b	-0.02137827
43	0xbe4b047e	-0.19825932
44	0xbe06ccb1	-0.13164021
45	0xbd7beda9	-0.061505947
46	0xbcd7a99b	-0.026325991
47	0xbe587107	-0.21136867
48	0xbd269573	-0.04066987
49	0xbdd94ebd	-0.10610721
50	0xbe9ebf10	-0.31005144
51	0x3d25f3ac	0.040515587
52	0xbdb4d51d	-0.08829711
53	0xbe16ad69	-0.14714588
54	0xbe099589	-0.1343595
55	0xbe1a930a	-0.15095153
56	0xbe6eb9cd	-0.23313065
57	0xbe44b277	-0.19208704
58	0xbe466d69	-0.19377674
59	0xbdc08abe	-0.09401463
60	0xbe29826e	-0.16553661
61	0xbdd3c964	-0.103411466
62	0xbcd81add	-0.026379997
63	0xbe1ff135	-0.15619357
64	0xbd6b1659	-0.05739436
65	0xbe5bd463	-0.21467738
66	0xbe4db247	-0.20087539
67	0xbe6686ad	-0.22512312
68	0xbda63817	-0.08116167
69	0xbdc87ebd	-0.097897984
70	0xbd77de62	-0.060514815
71	0xbe4226c6	-0.18960103
72	0xbd3dd9a9	-0.046350155
73	0xbe072aa8	-0.13199866
74	0x3c1f59b9	0.009725981
75	0xbe86b347	-0.26308653
76	0xbcdc2369	-0.026872354
77	0xbe02557b	-0.1272792
78	0xbe374b2a	-0.17899767
79	0xbcf30873	-0.029667115
80	0xbdca28ac	-0.09871039
81	0xbbd70e0e	-0.0065629547
82	0xbc123fc7	-0.0089263385
83	0xbd246f94	-0.04014547
84	0xbe9e3f06	-0.30907458
85	0x3be4cb36	0.0069822324
86	0x3d9a6dc1	0.07540465
87	0xbe240d43	-0.16020684
88	0xbd234af1	-0.03986639
89	0xbe88e31e	-0.26735777
90	0x3be7102f	0.00705149
91	0xbe64223d	-0.22278686
92	0x3e007232	0.12543562
93	0xbe16e1d5	-0.14734586
94	0xbe33ed02	-0.1757088
95	0xbd9c6d55	-0.07638041
96	0x3d3ef63e	0.046621554
97	0xbdcdbca5	-0.10045747
98	0xbd3e7886	-0.04650166
99	0xbdf85740	-0.121260166
100	0xbdaa3983	-0.08311751
101	0x3cb9dd59	0.022688555
102	0xbdf562e7	-0.11981755
103	0xbc7aa89a	-0.015298987
104	0x3cdc3f25	0.026885578
105	0xbd552afb	-0.052042942
106	0xbd8a2cd9	-0.06746835
107	0xbcadac82	-0.021200422
108	0xbe54cdc8	-0.20781624
109	0x3c587bb6	0.013213089
110	0xbc90f87a	-0.017696608
111	0xbe1a8bdc	-0.15092415
112	0xbda4644a	-0.08026941
113	0xbe69791e	-0.22800109
114	0xbd920214	-0.071293026
115	0x3ca18f77	0.01972173
116	0xbdf434b3	-0.11924114
117	0xbd77d944	-0.060509935
118	0xbd8cb30c	-0.06870088
119	0xbdc9aabc	-0.09847018
120	0xbd379f22	-0.044829495
121	0xbd8023e0	-0.062568426
122	0xbd4038e9	-0.046929274
123	0xbe486dc7	-0.19573127
124	0x3ba12eac	0.004918894
125	0xbe0d7edc	-0.13817924
126	0xbe156ea6	-0.1459299
127	0xbd5bb637	-0.05364057

fc2.weight f4 [64, 128]
0	0xbcf846e8	-0.030307248
1	0xbcaa8bba	-0.02081858
2	0x3ed80c43	0.42196855
3	0x3d492b28	0.049113423
4	0xbd0b5a80	-0.034021854
5	0xbd9461c4	-0.0724521
6	0xbd54cddd	-0.05195414
7	0xbcf4a4b8	-0.0298637
8	0xbdfb4e68	-0.12270814
9	0xbdba722c	-0.09103808
10	0xbd0cd885	-0.034386177
11	0x3d921a25	0.07133893
12	0x3a1d1f66	0.00059937534
13	0x3ecd5171	0.40101197
14	0x3c97ec15	0.01854519
15	0xbd1d4de6	-0.038404368
16	0x3e2130f3	0.15741329
17	0xbe476b55	-0.19474538
18	0xbdb011ed	-0.08597169
19	0xbdcf8b14	-0.10133949
20	0x3e98989c	0.29803932
21	0xbd1f7601	-0.038930897
22	0x3eab420f	0.33448836
23	0xbe3e2851	-0.18570067
24	0x3eaea634	0.34111178
25	0x3de08351	0.109625466
26	0x3f012c5e	0.50458324
27	0x3e891ddd	0.26780596
28	0xbdbeb340	-0.09311533
29	0xbdf19276	-0.11795513
30	0xbe04fa2f	-0.12986062
31	0xbd083f06	-0.03326323
32	0x3f3027fa	0.68811
33	0x3f384137	0.7197451
34	0x3da4d0e9	0.08047659
35	0x3d0d145d	0.034443248
36	0xbe29cec8	-0.16582787
37	0x3dbc1205	0.091831245
38	0xbe4b5b71	-0.19859101
39	0x3c12a9eb	0.008951644
40	0x3dbdc2f1	0.09265698
41	0xbe6cc4c6	-0.23121938
42	0xbe554132	-0.20825651
43	0x3d69e036	0.05709859
44	0x3d15a00d	0.03652959
45	0x3cb13c59	0.021635221
46	0x3c3d0938	0.011537842
47	0xb98c6b5b	-0.00026782867
48	0xbcd1ab68	-0.025594428
49	0x3d9fb14a	0.07797487
50	0x3db79bbf	0.08965253
51	0xbe5c0ae1	-0.21488525
52	0xbca4437f	-0.020051716
53	0x3e094c46	0.13408002
54	0xbdfd0f34	-0.123564154
55	0x3e3f6396	0.18690333
56	0x3e8a63ac	0.2702917
57	0xbde3c199	-0.1112091
58	0x3ce22a6e	0.027608123
59	0x3d8e36db	0.069440566
60	0xbd2bf7c5	-0.04198434
61	0x3d1bd70a	0.038046874
62	0xbc741090	-0.014896527
63	0x3ed3cfd6	0.41369504
64	0x3ead6f55	0.33874002
65	0x3e398be6	0.18119773
66	0xbc124cd5	-0.008929451
67	0x3d3dab90	0.046306193
68	0xbd3ad537	-0.045613494
69	0x3d14cbc6	0.036327146
70	0x3df2b30b	0.11850556
71	0x3e70c441	0.23512365
72	0xbc686ec8	-0.014186569
73	0x3cba93b1	0.022775503
74	0xbe1d0b6b	-0.15336387
75	0xbcad4cb2	-0.021154735
76	0x3d27e4b0	0.040989578
77	0xbda5826a	-0.08081515
78	0xbd9a177e	-0.07524012
79	0xbc8b95ed	-0.017039264
80	0x3ed0b313	0.40761623
81	0xbb1ccb0b	-0.0023924734
82	0x3f016596	0.5054563
83	0x3e1be010	0.15222192
84	0x3e3891ee	0.18024418
85	0xbc968c5c	-0.018377475
86	0xbd92c123	-0.07165744
87	0xbe9be99b	-0.30451664
88	0x3e4fac0a	0.20280471
89	0x3ecdb9e7	0.40180895
90	0x3f01dfce	0.50732124
91	0x3de933bb	0.1138682
92	0x3dd1df42	0.10247661
93	0x3d835c28	0.06414062
94	0xbd8a5dff	-0.067562096
95	0xbb051dbd	-0.0020311915
96	0xbe1bf1a7	-0.15228902
97	0x3e4f05c0	0.20217037
98	0x3d2409c8	0.04004839
99	0x3d20ce19	0.03925905
100	0x3dc20523	0.09473636
101	0x3f0365d1	0.51327235
102	0x3e1f6720	0.15566683
103	0xbe362c8b	-0.1779043
104	0xbd8f1a75	-0.06987468
105	0xbc95d03f	-0.018287776
106	0x3cae50ce	0.021278765
107	0xbcccea69	-0.02501412
108	0x3dc494a3	0.09598663
109	0xbe7adb17	-0.24497639
110	0x3e9bb90f	0.30414626
111	0x3e474609	0.1946031
112	0x3e80932e	0.2511229
113	0x3beb995c	0.0071899127
114	0x3d81a331	0.063299544
115	0xbc3ae369	-0.011406758
116	0x3dd8253c	0.10553977
117	0x3c67c8bf	0.014146983
118	0xbe059757	-0.13046013
119	0x3dc754b5	0.097329535
120	0x3dc2f655	0.0951964
121	0x3c829533	0.015940284
122	0xbb69e99f	-0.0035692228
123	0x3cef5d38	0.029219255
124	0xbbce7177	-0.006300147
125	0x3c5274a4	0.012845192
126	0x3d980853	0.07423463
127	0x394f106d	0.00019747177
128	0x3dd39166	0.10330467
129	0xbebcbc44	-0.36862385
130	0x3e1617ba	0.14657488
131	0x3d65c5b9	0.056096766
132	0xb9c9c3b1	-0.0003848351
133	0x3dbe6748	0.09297043
134	0x3e704f85	0.23467834
135	0xbd009201	-0.03138924
136	0x3e1e96a6	0.15487155
137	0x3d43f245	0.047838468
138	0x3d43e015	0.047821123
139	0xb9d3c2e5	-0.00040390264
140	0x3e251792	0.16122273
141	0xbded9827	-0.116012864
142	0xbd906d17	-0.07052057
143	0xbdc6c143	-0.097048305
144	0x3d7c3265	0.061571497
145	0x3e88fa7c	0.26753604
146	0x3e39e430	0.18153453
147	0x3d8a04c5	0.06739191
148	0xbd618ee7	-0.055067923
149	0xbbc4f195	-0.006010244
150	0x3e43a9af	0.19107698
151	0xbe29c3e2	-0.1657863
152	0xbd830abe	-0.06398533
153	0x3dc68012	0.09692396
154	0x3eafe68b	0.34355578
155	0x3cd298db	0.025707653
156	0x3e9d3596	0.30704945
157	0xbea5f7db	-0.3241566
158	0xbd857e41	-0.06518222
159	0x3e6a383f	0.22873019
160	0x3e70de58	0.23522317
161	0x3e5af2d3	0.21381693
162	0xbe8b4b1e	-0.27205747
163	0xbd5d08e3	-0.053963553
164	0xbe8ffd41	-0.28122905
165	0xbe1f75dc	-0.15572304
166	0xbea8cdbf	-0.32969472
167	0xbdb25881	-0.08708287
168	0x3db074f6	0.086160585
169	0x3e27c2b3	0.16382866
170	0x3db3edf6	0.08785622
171	0xbbbe3ac0	-0.0058053434
172	0xbd3c6a31	-0.04599971
173	0x3e67f35b	0.22651426
174	0x3e93343d	0.28750792
175	0x3dbf88c1	0.093522556
176	0xbeb228d1	-0.34796765
177	0x3e10245a	0.14076367
178	0x3da4111e	0.08011077
179	0xbdafbf8a	-0.08581455
180	0x3e660709	0.22463621
181	0x3e3acb71	0.18241669
182	0xbd897a60	-0.06712794
183	0x3e013bfb	0.12620537
184	0x3e8bfd8a	0.27341872
185	0xbe882a2e	-0.2659468
186	0xbc5ec7b3	-0.013597417
187	0x3eaa86b1	0.33305886
188	0xbde51225	-0.111851014
189	0x3d2a7ce9	0.04162303
190	0x3e18a6a1	0.14907314
191	0x3dc02430	0.09381902
192	0x3deb2e62	0.11483456
193	0x3e845d23	0.25852308
194	0xbea25d9b	-0.3171204
195	0xbe09bd9c	-0.13451236
196	0x3d0ad339	0.033892844
197	0xbd03247f	-0.032017227
198	0xbca2b45f	-0.019861398
199	0x3d425a67	0.047449496
200	0xbe5f0470	-0.21779037
201	0xbd7cb491	-0.06169564
202	0x3dbee9e9	0.093219586
203	0xbcac84c5	-0.021059403
204	0xbe3919b3	-0.1807621
205	0xbe83c9a4	-0.25739777
206	0xbdce0c5c	-0.10060951
207	0x3dd3ca40	0.103413105
208	0xbadc4df2	-0.0016807897
209	0x3d9ee59b	0.077586375
210	0x3dd7d9c6	0.10539584
211	0xbe116a26	-0.14200649
212	0xbd587f72	-0.052855916
213	0x3d96a938	0.07356495
214	0x3d2d6e1a	0.04234133
215	0xbe44a6b8	-0.19204223
216	0x3d4c1b70	0.049830854
217	0x3e41c3e9	0.1892239
218	0x3d219de0	0.039457202
219	0xbe203952	-0.15646866
220	0x3d7c8614	0.061651304
221	0x3e2eef14	0.17083389
222	0xbe484aac	-0.19559735
223	0xbeb68d08	-0.35654473
224	0x3e358ac8	0.17728722
225	0x3eb6f3d2	0.35732895
226	0x3e12ca06	0.14334878
227	0x3e695e75	0.22789939
228	0x3e20d9d2	0.15708092
229	0x3d360f47	0.044448163
230	0x3cfc1316	0.03077082
231	0x3da84b42	0.08217479
232	0x3e0a36e2	0.13497499
233	0x3dd9e59f	0.106395
234	0xbc7b5d6d	-0.015342099
235	0x3db2ca11	0.08729947
236	0x3dca6056	0.09881656
237	0xbdb8effc	-0.090301484
238	0xbd528aff	-0.05140209
239	0x3efc7d33	0.4931427
240	0x3e8b565d	0.27214327
241	0x3e8859d4	0.26631033
242	0xbd1c23f3	-0.03812022
243	0xbe3ff2f5	-0.18745025
244	0xbd8d23ee	-0.06891619
245	0x3e8a663f	0.27031133
246	0xbe42c6cc	-0.19021147
247	0x3e47805b	0.19482557
248	0xbd55a273	-0.052156877
249	0x3cd2bf53	0.025725996
250	0x3cb5de6b	0.022200784
251	0xbd017e1d	-0.03161441
252	0xbdc5ab97	-0.09651869
253	0x3e1a41d1	0.1506417
254	0x3da61f81	0.08111478
255	0xbc91f804	-0.017818458

fc2.bias f4 [64]
0	0x3d1f54d6	0.038899265
1	0xbda537e2	-0.080672994
2	0xbcaba4b2	-0.020952556
3	0x3db6f6fc	0.08933827
4	0x3cf28b30	0.029607385
5	0x3de515cc	0.11185798
6	0x3d33833b	0.043826323
7	0x3eafd28a	0.34340316
8	0x3dc755d1	0.09733165
9	0x3ce63197	0.028099818
10	0x3e0aedb8	0.13567245
11	0x3bfcde38	0.00771692
12	0x3e0ddadd	0.13853021
13	0x3d96d54c	0.07364902
14	0x3c81c55e	0.015841182
15	0x3dc17c55	0.094475426
16	0x3de84edb	0.113431655
17	0xbe485315	-0.19562943
18	0x3dbe01bd	0.09277675
19	0xbc80d3db	-0.01572602
20	0xbe33a718	-0.1754421
21	0x3ddc0f95	0.107451595
22	0x3dda27ed	0.106521465
23	0x3e946b20	0.2898798
24	0xbd95b95d	-0.07310746
25	0x3e076987	0.13223849
26	0x3e2e4248	0.17017472
27	0x3e2190e0	0.15777922
28	0xbc374ff9	-0.011188501
29	0x3e21968a	0.15780082
30	0xbdb279d3	-0.087146424
31	0x3d81e638	0.06342739
32	0x3e868778	0.2627523
33	0x3e5c806d	0.21533366
34	0x3e3c522b	0.1839072
35	0x3dce5b6f	0.10076033
36	0x3db8eac0	0.0902915
37	0xbd2766c5	-0.040869493
38	0x3e67a8c0	0.22622967
39	0xba34c9e5	-0.00068965397
40	0x3db96807	0.09053045
41	0x3e52bc60	0.20579672
42	0x3e2f65a9	0.17128624
43	0x3e0c027c	0.13672823
44	0x3e01b41d	0.12666364
45	0x3e28386f	0.16427778
46	0x3e14bf20	0.14526033
47	0xbc9673db	-0.018365791
48	0x3d858f21	0.0652144
49	0xbdc5fcad	-0.09667335
50	0x3e1b6331	0.15174557
51	0x3dcc7a39	0.099842496
52	0x3da988e6	0.082780644
53	0x3e439cd1	0.1910279
54	0x3ddb6cfe	0.10714148
55	0x3d592659	0.053015087
56	0xbdad89f7	-0.0847358
57	0x3e4daff4	0.20086652
58	0x3e995c8f	0.2995343
59	0x3e095bde	0.13413951
60	0x3d835cf8	0.06414217
61	0x3e21b13f	0.1579027
62	0x3daf77bf	0.08567762
63	0x3e5d8e08	0.21636212

fc3.weight f4 [10, 64]
0	0x3e35d5bd	0.17757316
1	0x3e354c5d	0.17704912
2	0xbf17bf1c	-0.59275985
3	0xbf3329f0	-0.69985867
4	0x3e92a628	0.28642392
5	0x3e25dd9e	0.16197821
6	0xbf19bcbf	-0.6005363
7	0x3e1d100f	0.15338157
8	0xbee482b6	-0.44630975
9	0xbede1663	-0.43376455
10	0xbef2a4dc	-0.47391403
11	0xbe8d56e1	-0.27605346
12	0x3e093fa0	0.13403177
13	0x3e4c9c0c	0.19981402
14	0x3e943d77	0.28953144
15	0x3d846fe3	0.06466653
16	0xbf15e456	-0.5855154
17	0xbe0a0313	-0.13477735
18	0xbd5e585b	-0.05428348
19	0xbe9d8ada	-0.30769998
20	0xbeaab5a4	-0.33341706
21	0x3a931e99	0.0011224329
22	0x3dcc76d6	0.09983604
23	0x3eca9686	0.39567965
24	0x3e258110	0.16162515
25	0x3e4cb961	0.19992591
26	0x3df3ac48	0.118980944
27	0xbe499e8d	-0.19689389
28	0xbebc8e78	-0.36827445
29	0xbe9560ed	-0.2917551
30	0xbe9a1d8c	-0.30100667
31	0xbe12c890	-0.14334321
32	0x3e25adad	0.16179533
33	0xbe37b979	-0.17941846
34	0x3d3f155c	0.04665123
35	0x3cecc351	0.028901728
36	0x3e55e35a	0.20887509
37	0xbe76c4a4	-0.2409845
38	0xbe7afc80	-0.24510384
39	0xbec6dc33	-0.38839874
40	0xbeaa5827	-0.3327038
41	0x3df2ef9c	0.11862108
42	0xbe0ffb1d	-0.14060636
43	0xbe33c3d0	-0.17555165
44	0xbed7bbbe	-0.42135423
45	0x3ed89bc5	0.42306343
46	0x3dc8dad7	0.098073654
47	0xbebc602d	-0.36792126
48	0xbf1dd370	-0.61650753
49	0xbebe1efc	-0.37133014
50	0xbef0486b	-0.4693025
51	0xbf0dc875	-0.55384
52	0xbf38b56c	-0.7215183
53	0xbf1c4c4d	-0.61053926
54	0xbe9d4125	-0.30713764
55	0xbea16d96	-0.3152892
56	0xbed09af3	-0.40743217
57	0x3cbbf3f1	0.022943469
58	0x3e84b555	0.25919595
59	0x3e809d84	0.25120175
60	0x3e34b380	0.17646599
61	0x3d1bb664	0.038015738
62	0x3e280ae4	0.16410404
63	0xb7fa26ba	-2.9820356e-05
64	0xbf65a86b	-0.8971011
65	0x3e08d21b	0.13361399
66	0x3c7d2feb	0.015453319
67	0x3dc1e3c2	0.094672695
68	0xbea4c5de	-0.3218221
69	0xbe055a72	-0.13022783
70	0x3eb19d01	0.34690097
71	0x3dfce3de	0.1234815
72	0xbeb0fe40	-0.34568977
73	0xbed81fad	-0.42211667
74	0x3eb8e765	0.3611404
75	0x3e9a278d	0.301083
76	0x3e3e147c	0.18562502
77	0x3e43fb6a	0.19138876
78	0xbec0c5e5	-0.37650982
79	0x3dd95dde	0.10613607
80	0x3e8fcf3d	0.28087798
81	0xbe90ea21	-0.28303626
82	0x3e88cbfe	0.26718134
83	0xbe8363ec	-0.25662172
84	0xbefafc64	-0.49020684
85	0x3e23f35f	0.16010807
86	0x3ddf91fa	0.10916515
87	0xbf2d0ee5	-0.6760085
88	0xbf12f848	-0.574101
89	0x3e35cd6f	0.17754148
90	0x3e135204	0.14386755
91	0x3e2bba23	0.16770224
92	0xbf2f911e	-0.68580806
93	0x3e6318c5	0.22177418
94	0xbee04b55	-0.43807474
95	0x3d867d6a	0.065668896
96	0x3e4fa8d3	0.20279245
97	0xbe2df704	-0.1698876
98	0xbe0bde08	-0.13658917
99	0x3e5e529f	0.21711205
100	0xbd8828e1	-0.06648422
101	0xbe1dcdec	-0.15410584
102	0x3e0ad8b7	0.13559233
103	0xbe446923	-0.19180731
104	0x3ed83709	0.42229488
105	0xbf6983b8	-0.9121661
106	0xbebae242	-0.36500746
107	0xbe174f7f	-0.14776419
108	0x3e74f85b	0.23922865
109	0x3e768332	0.24073485
110	0x3e2f93ea	0.17146268
111	0xbf39a9ab	-0.7252452
112	0xbe977212	-0.29579216
113	0xbea62f78	-0.3245809
114	0xbf62e19f	-0.8862552
115	0x3e367b17	0.17820393
116	0x3bedbd37	0.007255222
117	0x3e19ab3c	0.15006727
118	0x3ea5ba69	0.32368782
119	0xbf3b10fb	-0.73072785
120	0xbe35b601	-0.1774521
121	0x3e2857c6	0.16439733
122	0x3dd30344	0.10303357
123	0xbf537c8a	-0.82611907
124	0xbf86d52b	-1.0533804
125	0xbf7ef569	-0.99593216
126	0x3e8d209d	0.27563944
127	0x3e52b03e	0.20575044
128	0xbf77987e	-0.9671706
129	0xbef6ac6c	-0.48178422
130	0x3e0cbbc2	0.13743499
131	0x3ddd8cdd	0.10817883
132	0x3e7a5283	0.24445538
133	0x3d13ce64	0.0360855
134	0xbf2ce8bb	-0.6754262
135	0x3d84f556	0.064921066
136	0xbec77eb7	-0.38963863
137	0xbebc9651	-0.36833432
138	0x3e738d05	0.23784263
139	0x3e10389c	0.14084095
140	0x3e8c23ea	0.2737115
141	0x3e81625d	0.25270358
142	0x3eb43ffe	0.35205072
143	0xbf645b24	-0.8920157
144	0x3e800d27	0.25010034
145	0xbee8c782	-0.45464712
146	0x3e97dd5d	0.29661074
147	0xbecd4621	-0.40092567
148	0xbf2cc1ab	-0.67483014
149	0x3e376dd9	0.17912997
150	0xbf580bd5	-0.84393054
151	0xbe27d6d1	-0.1639054
152	0xbe6d5e32	-0.23180464
153	0x3e6a9c26	0.22911128
154	0xbe8333bc	-0.25625408
155	0xbf423bac	-0.758723
156	0x3dba35df	0.09092306
157	0xbf0da470	-0.55329037
158	0xbe63fcf1	-0.22264458
159	0x3d05d948	0.03267792
160	0x3e4c46d0	0.19948888
161	0xbf243d0b	-0.64155644
162	0x3e0796fc	0.1324119
163	0x3e859300	0.26088715
164	0xbd321af9	-0.043482754
165	0xbee3bd95	-0.44480577
166	0xbd6e6a5d	-0.058206905
167	0x3d2b9374	0.04188867
168	0xbee1653d	-0.4402255
169	0xbe1386ea	-0.14406934
170	0x3e265e50	0.16246915
171	0x3e98261b	0.29716572
172	0x3e9f52c5	0.31117836
173	0x3e8f2506	0.27957934
174	0x3e3a0d8f	0.18169235
175	0xbdabee9a	-0.08395119
176	0x3e019b24	0.12656838
177	0xbf14d3e0	-0.58135796
178	0xbe8ea1c4	-0.27857792
179	0x3df88f3e	0.12136696
180	0x3e136f19	0.14397849
181	0x3d9e73c7	0.077369265
182	0x3e91f651	0.28508237
183	0xbef5a010	-0.4797368
184	0xbf01e683	-0.5074236
185	0xbf29c89f	-0.6632175
186	0x3dbe18c8	0.092820704
187	0x3e915d64	0.28391564
188	0x3dbbf4bf	0.09177541
189	0x3d07e766	0.033179663
190	0xbe1b8893	-0.15188818
191	0x3e75fac5	0.24021442
192	0x3e08c33c	0.13355726
193	0xbdc2481d	-0.09486411
194	0x3d20336b	0.039111536
195	0x3e280bb2	0.16410711
196	0x3ef63a38	0.48091292
197	0xbefb1d0a	-0.49045593
198	0xbebd0bec	-0.36923158
199	0xbf342e94	-0.7038357
200	0x3b56e4e6	0.0032790243
201	0xbe9f7a29	-0.31147888
202	0xbed58e72	-0.4171024
203	0xbedcf2c2	-0.4315396
204	0xbf1daad4	-0.6158879
205	0xbf318efa	-0.6935879
206	0x3e692254	0.22767001
207	0xbeb0aa14	-0.3450476
208	0xbf46c17e	-0.77638996
209	0x3e840d76	0.2579152
210	0xbf0459a4	-0.5169928
211	0xbe6e1aac	-0.23252362
212	0x3de710d0	0.112825036
213	0xbf29428a	-0.66117156
214	0xbec5799e	-0.3856935
215	0x3e51a7e3	0.204742
216	0xbedee149	-0.43531254
217	0xbf417af5	-0.7557824
218	0xbf1d0f1e	-0.6135119
219	0xbece97a2	-0.40350062
220	0x3e437376	0.19087014
221	0xbf077889	-0.529183
222	0x3e7cc131	0.24683072
223	0x3d9cda61	0.0765884
224	0xbeeab17c	-0.45838535
225	0x3cf85384	0.03031326
226	0x3e489a93	0.19590215
227	0xbf3edeb8	-0.7455859
228	0x3e23e173	0.16003971
229	0xbf14ab32	-0.58073723
230	0xbf5cfea5	-0.86326057
231	0x3e0e6a7c	0.13907808
232	0xbf02c128	-0.51075983
233	0x3e947da2	0.290021
234	0x3e36b711	0.17843272
235	0xbe5db89f	-0.21652459
236	0xbe3766fd	-0.1791038
237	0x3f014a3f	0.50503916
238	0xbf775cd8	-0.96626043
239	0x3e35a381	0.17738153
240	0x3e0d47b4	0.13796884
241	0x3e233b2d	0.15940543
242	0x3df41c9e	0.11919521
243	0xbf7e5044	-0.99341226
244	0x3e3e6918	0.18594778
245	0x3e2002d8	0.15626085
246	0xbea6d225	-0.32582203
247	0x3e4f5174	0.20245916
248	0xbec8ffac	-0.39257562
249	0xbeeb7473	-0.4598728
250	0x3dfafe79	0.12255568
251	0x3e7ffd5a	0.2499899
252	0x3e131091	0.14361788
253	0x3e0bd05b	0.136537
254	0x3da0638e	0.078314885
255	0xbf683c7f	-0.9071731

fc3.bias f4 [10]
0	0xbde5e461	-0.112252004
1	0x3d991298	0.074742496
2	0x3e8b238e	0.27175564
3	0x3d807586	0.06272416
4	0xbea5f03f	-0.32409856
5	0xbd90fd65	-0.07079581
6	0x3d7a6826	0.06113448
7	0x3d98e2d1	0.07465137
8	0xbd598bd5	-0.05311187
9	0xbcad2c77	-0.021139367
